0_wv_k_2_c_3.tflite (tflite, 7848 bytes, 6 tensors)

model_1/dense_1/MatMul i1 [2, 8] scale=0.009576482 zero_point=0
000000 b5 27 0c ce 5e e0 ed 3b 5e cc be 24 15 7f 2b f1
       -0.71823615 0.3734828 0.114917785 -0.47882408 0.9001893 -0.30644742 -0.18195315 0.5650124 0.9001893 -0.49797705 -0.6320478 0.34475335 0.20110612 1.2162132 0.4117887 -0.14364722

model_1/batch_normalization_4/batchnorm/mul_1 i1 [8, 8] scale=0.050645467 zero_point=0
000000 e7 f0 20 1e 16 fc 48 e5 f6 b1 15 83 02 ff ff 7f
       -1.2661366 -0.8103275 1.620655 1.519364 1.1142002 -0.20258187 3.6464736 -1.3674276 -0.50645465 -4.000992 1.0635548 -6.330683 0.101290934 -0.050645467 -0.050645467 6.4319744
000010 35 fb f9 4a 01 54 35 f6 e5 23 04 1c ed d9 03 d6
       2.6842098 -0.25322732 -0.35451826 3.7477646 0.050645467 4.254219 2.6842098 -0.50645465 -1.3674276 1.7725914 0.20258187 1.418073 -0.9622639 -1.9751732 0.1519364 -2.1271095
000020 cb fb 3e 11 1b 04 5b 1e dd 4e 1a ef af fc de 11
       -2.6842098 -0.25322732 3.140019 0.86097294 1.3674276 0.20258187 4.6087375 1.519364 -1.7725914 3.9503465 1.3167821 -0.86097294 -4.102283 -0.20258187 -1.7219459 0.86097294
000030 cd 6e 1d f9 b2 f4 f0 01 9f ff 88 14 53 fe f6 d9
       -2.582919 5.5710015 1.4687185 -0.35451826 -3.9503465 -0.6077456 -0.8103275 0.050645467 -4.91261 -0.050645467 -6.077456 1.0129093 4.2035737 -0.101290934 -0.50645465 -1.9751732

model_1/conv2d_3/Conv2D i1 [8, 3, 3, 6]
000000 df f8 0d fe 13 03 f4 0b fa 4b ff 1b dc 37 1f f7
       -33 -8 13 -2 19 3 -12 11 -6 75 -1 27 -36 55 31 -9
000010 14 b8 f7 0c f6 f6 0a 16 14 e0 f8 0e 03 f2 cb fe
       20 -72 -9 12 -10 -10 10 22 20 -32 -8 14 3 -14 -53 -2
000020 12 81 3d d5 00 fd ff f6 03 05 2a 2b ec 39 d9 2c
       18 -127 61 -43 0 -3 -1 -10 3 5 42 43 -20 57 -39 44
000030 02 d7 f3 13 f2 ef 1a 4b 0b 43 a5 06 41 02 3d 27
       2 -41 -13 19 -14 -17 26 75 11 67 -91 6 65 2 61 39
000040 cd 49 8b 53 1b 25 1b eb e4 d4 2e da f0 49 ec 92
       -51 73 -117 83 27 37 27 -21 -28 -44 46 -38 -16 73 -20 -110
000050 fd eb e8 e8 95 2a 12 bd 33 31 d3 0f 0b 25 5f c4
       -3 -21 -24 -24 -107 42 18 -67 51 49 -45 15 11 37 95 -60
000060 d4 1a 05 d3 36 81 13 33 e9 0d 0c 8b 2c f3 08 dd
       -44 26 5 -45 54 -127 19 51 -23 13 12 -117 44 -13 8 -35
000070 e4 f7 37 e3 d2 11 f8 e0 d6 fa 92 fc 21 0a de 11
       -28 -9 55 -29 -46 17 -8 -32 -42 -6 -110 -4 33 10 -34 17
000080 05 e7 08 ec 31 9e 81 2e c2 bf 3d f9 0b f4 ee f9
       5 -25 8 -20 49 -98 -127 46 -62 -65 61 -7 11 -12 -18 -7
000090 a4 16 21 e2 12 29 04 2e 1f 07 01 15 df 25 24 db
       -92 22 33 -30 18 41 4 46 31 7 1 21 -33 37 36 -37
0000a0 f2 01 12 03 fc 03 ce f7 fe 1e f9 f8 2f 37 f4 0d
       -14 1 18 3 -4 3 -50 -9 -2 30 -7 -8 47 55 -12 13
0000b0 f0 06 38 1c 10 22 06 ea d4 eb e8 0c ef f2 fa fc
       -16 6 56 28 16 34 6 -22 -44 -21 -24 12 -17 -14 -6 -4
0000c0 fd de e4 1e b2 d7 c8 24 0f eb 7f 27 1e ff eb 24
       -3 -34 -28 30 -78 -41 -56 36 15 -21 127 39 30 -1 -21 36
0000d0 84 ee 0f 19 f1 1c 05 f1 01 ff 03 2f 19 0a ca 19
       -124 -18 15 25 -15 28 5 -15 1 -1 3 47 25 10 -54 25
0000e0 05 f5 fa 4f f8 de f4 36 ee ae 0e f3 fe cb 1b db
       5 -11 -6 79 -8 -34 -12 54 -18 -82 14 -13 -2 -53 27 -37
0000f0 fa 08 02 81 11 dc bd 0f 05 04 36 cc df e5 13 39
       -6 8 2 -127 17 -36 -67 15 5 4 54 -52 -33 -27 19 57

model_1/conv2d_2/Conv2D i1 [6, 3, 3, 4]
000000 03 00 e7 81 fb 0d d8 bb 1e 35 44 1f ff 0c fa 97
       3 0 -25 -127 -5 13 -40 -69 30 53 68 31 -1 12 -6 -105
000010 e2 36 b1 81 03 21 f3 e3 2e 1e 30 f6 f4 46 fe be
       -30 54 -79 -127 3 33 -13 -29 46 30 48 -10 -12 70 -2 -66
000020 d8 4f ce b6 f6 fb 34 ff e0 05 1f 06 f2 11 e6 04
       -40 79 -50 -74 -10 -5 52 -1 -32 5 31 6 -14 17 -26 4
000030 d8 fb 16 fd bd 54 51 07 dc cd 64 08 31 25 f3 05
       -40 -5 22 -3 -67 84 81 7 -36 -51 100 8 49 37 -13 5
000040 c4 0a 2f 08 cb 7f 3e fe fa fa ff fb f4 02 fa fa
       -60 10 47 8 -53 127 62 -2 -6 -6 -1 -5 -12 2 -6 -6
000050 ff 0c ff 01 04 f4 df f0 f7 0d e3 f2 fb 06 f5 00
       -1 12 -1 1 4 -12 -33 -16 -9 13 -29 -14 -5 6 -11 0
000060 0b 01 7f fc 08 06 dc fe 02 07 f3 00 df ef 14 fa
       11 1 127 -4 8 6 -36 -2 2 7 -13 0 -33 -17 20 -6
000070 11 da 0d d7 f2 b3 fc f5 19 e1 24 ec 06 b7 f2 81
       17 -38 13 -41 -14 -77 -4 -11 25 -31 36 -20 6 -73 -14 -127
000080 33 d5 e2 19 1e bd 0c e6 29 d1 b4 f9 12 05 f4 08
       51 -43 -30 25 30 -67 12 -26 41 -47 -76 -7 18 5 -12 8
000090 1c 04 fa f9 c5 ea f8 0b 44 4d ff 0c ff e8 ec 02
       28 4 -6 -7 -59 -22 -8 11 68 77 -1 12 -1 -24 -20 2
0000a0 22 52 f8 17 46 25 ee 21 6c 17 f6 0b 5a 38 fe 18
       34 82 -8 23 70 37 -18 33 108 23 -10 11 90 56 -2 24
0000b0 54 7f 01 19 28 d3 b9 8f 2c 08 04 bc 11 13 09 02
       84 127 1 25 40 -45 -71 -113 44 8 4 -68 17 19 9 2
0000c0 7f e9 0f 91 0b 21 42 ee ea 00 f4 01 f4 01 21 e5
       127 -23 15 -111 11 33 66 -18 -22 0 -12 1 -12 1 33 -27
0000d0 1a 15 13 00 f9 f3 e8 ff
       26 21 19 0 -7 -13 -24 -1

model_1/conv2d_1/Conv2D i1 [4, 3, 3, 2]
000000 07 c0 fe 15 f2 20 fe d8 f3 7f f0 ee fb 2c 04 24
       7 -64 -2 21 -14 32 -2 -40 -13 127 -16 -18 -5 44 4 36
000010 f4 ac fd 1d 01 fc f8 ba f9 19 fa 7f 0a f9 01 b2
       -12 -84 -3 29 1 -4 -8 -70 -7 25 -6 127 10 -7 1 -78
000020 ec 19 04 21 02 02 fe 13 f6 21 03 01 02 fc 81 b8
       -20 25 4 33 2 2 -2 19 -10 33 3 1 2 -4 -127 -72
000030 03 05 00 06 ff 06 04 fe 06 ed f5 fe ed ff a4 f8
       3 5 0 6 -1 6 4 -2 6 -19 -11 -2 -19 -1 -92 -8
000040 14 0a e0 09 7f 0a f5 1c
       20 10 -32 9 127 10 -11 28

model_1/conv2d/Conv2D i1 [2, 3, 3, 3]
000000 ef e6 30 fb 10 f4 23 c5 1b cc 60 d5 d8 7f aa f9
       -17 -26 48 -5 16 -12 35 -59 27 -52 96 -43 -40 127 -86 -7
000010 e8 21 f9 16 ee ec 14 06 2c cc fe 8a 05 54 b7 03
       -24 33 -7 22 -18 -20 20 6 44 -52 -2 -118 5 84 -73 3
000020 45 15 1a e3 81 e8 55 b5 dd 45 e1 2f ea c1 fd 0b
       69 21 26 -29 -127 -24 85 -75 -35 69 -31 47 -22 -63 -3 11
000030 09 ff ff 14 01 20
       9 -1 -1 20 1 32
