0_wv_k_8_c_5.tflite (tflite, 45632 bytes, 8 tensors)

model/dense_1/MatMul i1 [2, 37] scale=0.005666617 zero_point=0
0	0x15	0.11899895
1	0x35	0.3003307
2	0x20	0.18133174
3	0xed	-0.10766572
4	0x0d	0.07366602
5	0x0b	0.062332787
6	0xff	-0.005666617
7	0xbd	-0.37966332
8	0xb3	-0.43632948
9	0xae	-0.46466258
10	0x23	0.1983316
11	0x13	0.10766572
12	0xef	-0.09633248
13	0x1b	0.15299866
14	0x6b	0.606328
15	0x4a	0.41932964
16	0x3d	0.34566364
17	0x02	0.011333234
18	0xf2	-0.079332635
19	0xec	-0.11333234
20	0x26	0.21533144
21	0x49	0.41366303
22	0x24	0.20399821
23	0x4b	0.42499626
24	0x10	0.09066587
25	0xf6	-0.05666617
26	0xed	-0.10766572
27	0xfb	-0.028333085
28	0x63	0.56099504
29	0xb9	-0.4023298
30	0xe4	-0.15866527
31	0xe1	-0.17566513
32	0xe5	-0.15299866
33	0xf6	-0.05666617
34	0x25	0.20966482
35	0x5e	0.532662
36	0x07	0.039666317
37	0xd1	-0.266331
38	0xe3	-0.16433188
39	0xea	-0.12466557
40	0x2a	0.2379979
41	0x32	0.28333083
42	0x34	0.29466408
43	0x46	0.3966632
44	0xf2	-0.079332635
45	0x00	0.0
46	0xf5	-0.062332787
47	0xe3	-0.16433188
48	0xd7	-0.23233129
49	0x25	0.20966482
50	0x4e	0.44199613
51	0x17	0.13033219
52	0x01	0.005666617
53	0xe4	-0.15866527
54	0x4b	0.42499626
55	0xbd	-0.37966332
56	0x27	0.22099806
57	0xe4	-0.15866527
58	0xe4	-0.15866527
59	0xf1	-0.084999256
60	0x0f	0.084999256
61	0x49	0.41366303
62	0xc2	-0.35133025
63	0x36	0.3059973
64	0x4f	0.44766274
65	0x18	0.1359988
66	0x16	0.12466557
67	0x1a	0.14733204
68	0x08	0.045332935
69	0x7f	0.71966034
70	0x3a	0.32866377
71	0xd5	-0.24366452
72	0x1f	0.17566513
73	0xca	-0.3059973

model/batch_normalization_6/batchnorm/mul_1 i1 [37, 37] scale=0.006031195 zero_point=0
0	0x15	0.1266551
1	0xe7	-0.15077987
2	0x19	0.15077987
3	0x0e	0.08443673
4	0x0c	0.072374344
5	0x1c	0.16887346
6	0xee	-0.108561516
7	0x29	0.247279
8	0x02	0.01206239
9	0x18	0.14474869
10	0xf6	-0.06031195
11	0xc7	-0.34377813
12	0xaf	-0.48852682
13	0x0c	0.072374344
14	0x45	0.41615248
15	0x08	0.04824956
16	0x0f	0.09046793
17	0xf6	-0.06031195
18	0x34	0.31362215
19	0xe0	-0.19299825
20	0x17	0.13871749
21	0xdc	-0.21712303
22	0x0d	0.07840554
23	0x49	0.44027725
24	0xda	-0.22918542
25	0x27	0.23521662
26	0xf8	-0.04824956
27	0x2c	0.26537257
28	0xf7	-0.054280758
29	0xd6	-0.2533102
30	0x0b	0.06634314
31	0x13	0.11459271
32	0x13	0.11459271
33	0xfb	-0.030155975
34	0x3a	0.34980932
35	0xfd	-0.018093586
36	0x17	0.13871749
37	0x01	0.006031195
38	0x0a	0.06031195
39	0xec	-0.1206239
40	0x1c	0.16887346
41	0x13	0.11459271
42	0x25	0.22315422
43	0x27	0.23521662
44	0x1a	0.15681107
45	0x33	0.30759096
46	0x2e	0.27743497
47	0x09	0.054280758
48	0x1c	0.16887346
49	0x16	0.13268629
50	0x0d	0.07840554
51	0xf5	-0.06634314
52	0x20	0.19299825
53	0x0e	0.08443673
54	0x58	0.53074515
55	0xf9	-0.042218365
56	0xd0	-0.28949738
57	0x5c	0.55486995
58	0xee	-0.108561516
59	0x46	0.42218366
60	0xf2	-0.08443673
61	0x15	0.1266551
62	0x1e	0.18093586
63	0xff	-0.006031195
64	0xe2	-0.18093586
65	0x31	0.29552856
66	0x2a	0.2533102
67	0xdf	-0.19902945
68	0x1d	0.17490466
69	0x2b	0.2593414
70	0x20	0.19299825
71	0xfb	-0.030155975
72	0x03	0.018093586
73	0xcb	-0.31965333
74	0x0b	0.06634314
75	0x00	0.0
76	0x07	0.042218365
77	0xf6	-0.06031195
78	0xc0	-0.3859965
79	0x14	0.1206239
80	0xee	-0.108561516
81	0xe0	-0.19299825
82	0xe3	-0.17490466
83	0x03	0.018093586
84	0x04	0.02412478
85	0xfb	-0.030155975
86	0x0a	0.06031195
87	0xdc	-0.21712303
88	0xee	-0.108561516
89	0xdc	-0.21712303
90	0xea	-0.13268629
91	0xeb	-0.1266551
92	0xde	-0.20506063
93	0x1c	0.16887346
94	0x06	0.036187172
95	0xfd	-0.018093586
96	0x31	0.29552856
97	0xf8	-0.04824956
98	0x12	0.108561516
99	0x16	0.13268629
100	0x0e	0.08443673
101	0x14	0.1206239
102	0xe8	-0.14474869
103	0x18	0.14474869
104	0xab	-0.51265156
105	0x45	0.41615248
106	0xd9	-0.23521662
107	0xf6	-0.06031195
108	0xe3	-0.17490466
109	0xe5	-0.16284227
110	0xc2	-0.3739341
111	0xfc	-0.02412478
112	0xfd	-0.018093586
113	0x03	0.018093586
114	0x14	0.1206239
115	0x2a	0.2533102
116	0x1e	0.18093586
117	0x0a	0.06031195
118	0xe2	-0.18093586
119	0x08	0.04824956
120	0x0e	0.08443673
121	0xfa	-0.036187172
122	0x0e	0.08443673
123	0x06	0.036187172
124	0xef	-0.102530316
125	0xf6	-0.06031195
126	0x19	0.15077987
127	0x0a	0.06031195
128	0xea	-0.13268629
129	0xf7	-0.054280758
130	0x05	0.030155975
131	0xf9	-0.042218365
132	0xe7	-0.15077987
133	0x01	0.006031195
134	0xf7	-0.054280758
135	0xf6	-0.06031195
136	0x06	0.036187172
137	0xf4	-0.072374344
138	0xec	-0.1206239
139	0x0a	0.06031195
140	0xfa	-0.036187172
141	0x06	0.036187172
142	0xf7	-0.054280758
143	0xeb	-0.1266551
144	0xdf	-0.19902945
145	0x1b	0.16284227
146	0x14	0.1206239
147	0x00	0.0
148	0xe6	-0.15681107
149	0x1c	0.16887346
150	0x0f	0.09046793
151	0x32	0.30155975
152	0x24	0.21712303
153	0x13	0.11459271
154	0x27	0.23521662
155	0xe6	-0.15681107
156	0x50	0.4824956
157	0x43	0.40409008
158	0x09	0.054280758
159	0x24	0.21712303
160	0x09	0.054280758
161	0xf5	-0.06634314
162	0xee	-0.108561516
163	0x18	0.14474869
164	0x9c	-0.6031195
165	0xf6	-0.06031195
166	0x08	0.04824956
167	0xec	-0.1206239
168	0x36	0.32568455
169	0xf9	-0.042218365
170	0x02	0.01206239
171	0xe5	-0.16284227
172	0x06	0.036187172
173	0xfb	-0.030155975
174	0xe7	-0.15077987
175	0xde	-0.20506063
176	0x3b	0.3558405
177	0xd7	-0.247279
178	0x18	0.14474869
179	0x1b	0.16284227
180	0xf2	-0.08443673
181	0x00	0.0
182	0x2b	0.2593414
183	0xed	-0.11459271
184	0x21	0.19902945
185	0x00	0.0
186	0xfc	-0.02412478
187	0x09	0.054280758
188	0xdc	-0.21712303
189	0xe9	-0.13871749
190	0x32	0.30155975
191	0x4f	0.47646442
192	0xf3	-0.07840554
193	0x44	0.41012126
194	0x24	0.21712303
195	0xfd	-0.018093586
196	0x13	0.11459271
197	0xf2	-0.08443673
198	0xfa	-0.036187172
199	0x06	0.036187172
200	0xce	-0.30155975
201	0x34	0.31362215
202	0x01	0.006031195
203	0xff	-0.006031195
204	0xd0	-0.28949738
205	0x02	0.01206239
206	0x15	0.1266551
207	0xf2	-0.08443673
208	0xeb	-0.1266551
209	0x19	0.15077987
210	0xf4	-0.072374344
211	0xfa	-0.036187172
212	0x0a	0.06031195
213	0x0e	0.08443673
214	0xf7	-0.054280758
215	0xe7	-0.15077987
216	0x10	0.09649912
217	0xd8	-0.2412478
218	0xd4	-0.26537257
219	0x0b	0.06634314
220	0xe9	-0.13871749
221	0x26	0.22918542
222	0xff	-0.006031195
223	0xf3	-0.07840554
224	0xf0	-0.09649912
225	0x0e	0.08443673
226	0x04	0.02412478
227	0x35	0.31965333
228	0x49	0.44027725
229	0x0b	0.06634314
230	0xed	-0.11459271
231	0xc5	-0.3558405
232	0x11	0.102530316
233	0x21	0.19902945
234	0x24	0.21712303
235	0xe8	-0.14474869
236	0xeb	-0.1266551
237	0xe7	-0.15077987
238	0x39	0.34377813
239	0x11	0.102530316
240	0xf7	-0.054280758
241	0xe0	-0.19299825
242	0xd8	-0.2412478
243	0x19	0.15077987
244	0xf3	-0.07840554
245	0xe2	-0.18093586
246	0x05	0.030155975
247	0xed	-0.11459271
248	0x05	0.030155975
249	0xf1	-0.09046793
250	0x1e	0.18093586
251	0xfb	-0.030155975
252	0xd2	-0.27743497
253	0x07	0.042218365
254	0x0e	0.08443673
255	0xbe	-0.3980589

model/conv2d_5/Conv2D i1 [37, 3, 3, 34]
0	0xf2	-14
1	0xf4	-12
2	0xf2	-14
3	0x0a	10
4	0x03	3
5	0x00	0
6	0xf5	-11
7	0x03	3
8	0x07	7
9	0xf7	-9
10	0xf3	-13
11	0x04	4
12	0x09	9
13	0x0d	13
14	0xfb	-5
15	0x08	8
16	0xfd	-3
17	0x09	9
18	0xfe	-2
19	0xf3	-13
20	0xf5	-11
21	0x00	0
22	0x01	1
23	0xf4	-12
24	0x0c	12
25	0xf6	-10
26	0xf8	-8
27	0xf9	-7
28	0x05	5
29	0xf7	-9
30	0xf3	-13
31	0x01	1
32	0x08	8
33	0xf9	-7
34	0x01	1
35	0xfd	-3
36	0x06	6
37	0xfe	-2
38	0x03	3
39	0x09	9
40	0xfd	-3
41	0xf2	-14
42	0x09	9
43	0x01	1
44	0xfd	-3
45	0x0e	14
46	0x02	2
47	0x03	3
48	0xf7	-9
49	0xf8	-8
50	0xfa	-6
51	0x0a	10
52	0x03	3
53	0xf6	-10
54	0x00	0
55	0x01	1
56	0xf8	-8
57	0xfc	-4
58	0x09	9
59	0x0e	14
60	0xf7	-9
61	0x0b	11
62	0x08	8
63	0xf7	-9
64	0x0b	11
65	0x0a	10
66	0xfc	-4
67	0x0a	10
68	0xf8	-8
69	0x02	2
70	0x0e	14
71	0x0a	10
72	0x0d	13
73	0x0b	11
74	0x01	1
75	0x00	0
76	0x02	2
77	0x0b	11
78	0xf4	-12
79	0x08	8
80	0x02	2
81	0xf4	-12
82	0x05	5
83	0x00	0
84	0x03	3
85	0xfb	-5
86	0x04	4
87	0x0b	11
88	0xf8	-8
89	0xf9	-7
90	0x07	7
91	0x06	6
92	0xfc	-4
93	0x08	8
94	0x05	5
95	0x03	3
96	0x03	3
97	0xf2	-14
98	0xfd	-3
99	0x08	8
100	0xf4	-12
101	0x0b	11
102	0x09	9
103	0xf5	-11
104	0x0b	11
105	0x0a	10
106	0xfa	-6
107	0xf5	-11
108	0xf6	-10
109	0xf3	-13
110	0x08	8
111	0x05	5
112	0xf4	-12
113	0x03	3
114	0xf2	-14
115	0x09	9
116	0xf6	-10
117	0xf8	-8
118	0xff	-1
119	0xf9	-7
120	0xff	-1
121	0x0e	14
122	0x09	9
123	0xf7	-9
124	0xfc	-4
125	0x06	6
126	0xfd	-3
127	0xfb	-5
128	0x0c	12
129	0xf2	-14
130	0x0b	11
131	0xfc	-4
132	0x02	2
133	0xf2	-14
134	0xf5	-11
135	0xf5	-11
136	0x38	56
137	0x16	22
138	0x7f	127
139	0x28	40
140	0x23	35
141	0x0b	11
142	0x19	25
143	0xf4	-12
144	0xe4	-28
145	0x6e	110
146	0x02	2
147	0x2c	44
148	0x7a	122
149	0x38	56
150	0x27	39
151	0xcf	-49
152	0xef	-17
153	0xf1	-15
154	0xc7	-57
155	0x2e	46
156	0x1d	29
157	0x51	81
158	0x4a	74
159	0xae	-82
160	0xca	-54
161	0x12	18
162	0xeb	-21
163	0x16	22
164	0xfb	-5
165	0xcd	-51
166	0x0f	15
167	0xee	-18
168	0x0a	10
169	0x0c	12
170	0x0e	14
171	0xfc	-4
172	0xf8	-8
173	0x01	1
174	0xfb	-5
175	0xf3	-13
176	0x09	9
177	0xf8	-8
178	0x04	4
179	0xfb	-5
180	0x0b	11
181	0x02	2
182	0xfb	-5
183	0xfb	-5
184	0x0c	12
185	0x07	7
186	0x05	5
187	0x05	5
188	0x07	7
189	0x08	8
190	0xf6	-10
191	0x0e	14
192	0x01	1
193	0xfe	-2
194	0x08	8
195	0x05	5
196	0x0e	14
197	0x01	1
198	0xfc	-4
199	0x02	2
200	0x08	8
201	0xf8	-8
202	0xfb	-5
203	0xf3	-13
204	0xf4	-12
205	0x04	4
206	0x0e	14
207	0x0c	12
208	0x05	5
209	0xf3	-13
210	0xf6	-10
211	0x0a	10
212	0x0a	10
213	0x01	1
214	0xf4	-12
215	0xfa	-6
216	0xf9	-7
217	0x07	7
218	0x00	0
219	0x05	5
220	0x00	0
221	0xfe	-2
222	0xf2	-14
223	0xf4	-12
224	0x05	5
225	0x04	4
226	0x0e	14
227	0x00	0
228	0x05	5
229	0xff	-1
230	0x0b	11
231	0xf4	-12
232	0x0d	13
233	0xf8	-8
234	0x09	9
235	0xf5	-11
236	0xfb	-5
237	0xfb	-5
238	0x00	0
239	0x03	3
240	0x01	1
241	0x00	0
242	0x0c	12
243	0x0b	11
244	0xf8	-8
245	0xf7	-9
246	0x0c	12
247	0xf2	-14
248	0xf2	-14
249	0x0b	11
250	0xf8	-8
251	0xfb	-5
252	0x09	9
253	0xff	-1
254	0x0d	13
255	0xf4	-12

model/conv2d_4/Conv2D i1 [34, 3, 3, 30]
0	0x2a	42
1	0xf3	-13
2	0x16	22
3	0x0c	12
4	0x2f	47
5	0xd2	-46
6	0xe2	-30
7	0x0e	14
8	0xe9	-23
9	0x37	55
10	0xd4	-44
11	0x40	64
12	0x06	6
13	0xe5	-27
14	0x1c	28
15	0x01	1
16	0x08	8
17	0xc3	-61
18	0x5b	91
19	0x3e	62
20	0x28	40
21	0xd3	-45
22	0x24	36
23	0x27	39
24	0x29	41
25	0xfd	-3
26	0xd2	-46
27	0xe7	-25
28	0xf3	-13
29	0x11	17
30	0xde	-34
31	0x14	20
32	0xff	-1
33	0xfd	-3
34	0x21	33
35	0xd4	-44
36	0x2c	44
37	0xf3	-13
38	0x0d	13
39	0xfb	-5
40	0xd9	-39
41	0x18	24
42	0xc0	-64
43	0xdc	-36
44	0x03	3
45	0x1b	27
46	0x0c	12
47	0xad	-83
48	0x1c	28
49	0x18	24
50	0x13	19
51	0x0a	10
52	0x0e	14
53	0xec	-20
54	0x12	18
55	0x07	7
56	0x28	40
57	0x08	8
58	0xed	-19
59	0xfa	-6
60	0xbd	-67
61	0x1a	26
62	0xe8	-24
63	0xff	-1
64	0x37	55
65	0xdd	-35
66	0x22	34
67	0xf2	-14
68	0x29	41
69	0x32	50
70	0xe9	-23
71	0x45	69
72	0xf5	-11
73	0xdd	-35
74	0x05	5
75	0x3c	60
76	0x1f	31
77	0xfa	-6
78	0xdf	-33
79	0x2d	45
80	0xc4	-60
81	0x0e	14
82	0xe7	-25
83	0xdc	-36
84	0x2a	42
85	0xfa	-6
86	0xfd	-3
87	0x44	68
88	0xf3	-13
89	0xfb	-5
90	0xe7	-25
91	0xf5	-11
92	0xeb	-21
93	0x12	18
94	0x23	35
95	0xd6	-42
96	0xf6	-10
97	0x1c	28
98	0xd3	-45
99	0xeb	-21
100	0xea	-22
101	0x58	88
102	0x1a	26
103	0x09	9
104	0x20	32
105	0x51	81
106	0x0e	14
107	0xdf	-33
108	0x19	25
109	0xef	-17
110	0x23	35
111	0xf8	-8
112	0xfa	-6
113	0xe2	-30
114	0xc8	-56
115	0xf8	-8
116	0xf2	-14
117	0x10	16
118	0x12	18
119	0xfc	-4
120	0xe1	-31
121	0xfd	-3
122	0xc7	-57
123	0x1e	30
124	0xf8	-8
125	0xc6	-58
126	0xee	-18
127	0x44	68
128	0xfd	-3
129	0xea	-22
130	0xe1	-31
131	0x12	18
132	0x0a	10
133	0x29	41
134	0xec	-20
135	0x25	37
136	0x1f	31
137	0xde	-34
138	0x08	8
139	0x02	2
140	0xfc	-4
141	0xee	-18
142	0xee	-18
143	0xd9	-39
144	0xeb	-21
145	0x09	9
146	0x28	40
147	0xf6	-10
148	0xff	-1
149	0xe6	-26
150	0xcc	-52
151	0x02	2
152	0xcf	-49
153	0xf9	-7
154	0x1d	29
155	0x8e	-114
156	0xc3	-61
157	0x33	51
158	0x2d	45
159	0xcf	-49
160	0xe6	-26
161	0x16	22
162	0x06	6
163	0xf5	-11
164	0x47	71
165	0x15	21
166	0x27	39
167	0xf7	-9
168	0x02	2
169	0xfe	-2
170	0xed	-19
171	0xd5	-43
172	0xe2	-30
173	0xd8	-40
174	0x1f	31
175	0x3a	58
176	0xd2	-46
177	0x06	6
178	0x10	16
179	0xf2	-14
180	0x9f	-97
181	0x09	9
182	0xf6	-10
183	0xf9	-7
184	0x18	24
185	0x25	37
186	0x32	50
187	0xfe	-2
188	0xf8	-8
189	0xfc	-4
190	0xea	-22
191	0x6d	109
192	0xf3	-13
193	0xe6	-26
194	0x06	6
195	0x67	103
196	0xf1	-15
197	0xfb	-5
198	0xd3	-45
199	0xc5	-59
200	0xf9	-7
201	0x42	66
202	0xec	-20
203	0xda	-38
204	0xf5	-11
205	0x06	6
206	0xe1	-31
207	0x37	55
208	0x07	7
209	0x2f	47
210	0xd0	-48
211	0xec	-20
212	0xe4	-28
213	0x09	9
214	0x12	18
215	0xeb	-21
216	0x2f	47
217	0x23	35
218	0xf1	-15
219	0xe5	-27
220	0xd9	-39
221	0x27	39
222	0xab	-85
223	0xf9	-7
224	0x2a	42
225	0xfa	-6
226	0x05	5
227	0xcf	-49
228	0x2d	45
229	0xe3	-29
230	0xe2	-30
231	0x06	6
232	0xdb	-37
233	0xdc	-36
234	0x1c	28
235	0x19	25
236	0xef	-17
237	0x0b	11
238	0x10	16
239	0xf8	-8
240	0x0c	12
241	0xe2	-30
242	0xdc	-36
243	0xe0	-32
244	0x11	17
245	0xd0	-48
246	0x19	25
247	0xf6	-10
248	0x00	0
249	0x14	20
250	0xd8	-40
251	0x14	20
252	0xf7	-9
253	0xda	-38
254	0x07	7
255	0xd9	-39

model/conv2d_3/Conv2D i1 [30, 3, 3, 24]
0	0xf3	-13
1	0x13	19
2	0xfb	-5
3	0x09	9
4	0xf0	-16
5	0xee	-18
6	0xe1	-31
7	0xfc	-4
8	0x0d	13
9	0x09	9
10	0x0a	10
11	0xf4	-12
12	0x02	2
13	0x03	3
14	0xec	-20
15	0x27	39
16	0x06	6
17	0x11	17
18	0xf8	-8
19	0x02	2
20	0x05	5
21	0xf3	-13
22	0x04	4
23	0xff	-1
24	0xd9	-39
25	0xfd	-3
26	0x25	37
27	0x16	22
28	0x09	9
29	0x02	2
30	0xf4	-12
31	0x14	20
32	0x00	0
33	0x1f	31
34	0x1d	29
35	0xee	-18
36	0xfa	-6
37	0xf6	-10
38	0xf0	-16
39	0xf2	-14
40	0x00	0
41	0x04	4
42	0xe1	-31
43	0xfc	-4
44	0x03	3
45	0xd0	-48
46	0xf6	-10
47	0x1a	26
48	0xfa	-6
49	0xfc	-4
50	0x06	6
51	0x0c	12
52	0x03	3
53	0xf9	-7
54	0xe0	-32
55	0x0e	14
56	0x02	2
57	0x0b	11
58	0x16	22
59	0xe5	-27
60	0xef	-17
61	0x07	7
62	0x04	4
63	0xeb	-21
64	0xdf	-33
65	0x00	0
66	0xfd	-3
67	0xf6	-10
68	0xfc	-4
69	0xff	-1
70	0x02	2
71	0x00	0
72	0xf3	-13
73	0xe4	-28
74	0x1c	28
75	0x22	34
76	0x1e	30
77	0x08	8
78	0xe7	-25
79	0x1b	27
80	0x03	3
81	0x0b	11
82	0x23	35
83	0xe1	-31
84	0x1c	28
85	0xea	-22
86	0xec	-20
87	0xf7	-9
88	0xee	-18
89	0x14	20
90	0xde	-34
91	0x06	6
92	0x07	7
93	0xd9	-39
94	0x0c	12
95	0x26	38
96	0xed	-19
97	0x05	5
98	0x29	41
99	0x22	34
100	0xf3	-13
101	0x03	3
102	0xff	-1
103	0x12	18
104	0xf9	-7
105	0x16	22
106	0x21	33
107	0x02	2
108	0x14	20
109	0xfc	-4
110	0xf0	-16
111	0xbd	-67
112	0xce	-50
113	0xff	-1
114	0xdc	-36
115	0xfc	-4
116	0x02	2
117	0xeb	-21
118	0x16	22
119	0x38	56
120	0x12	18
121	0xf3	-13
122	0x12	18
123	0xfc	-4
124	0x03	3
125	0xdf	-33
126	0x19	25
127	0xf8	-8
128	0x01	1
129	0xf8	-8
130	0xff	-1
131	0xf3	-13
132	0xff	-1
133	0x0f	15
134	0xd3	-45
135	0xec	-20
136	0xf1	-15
137	0xef	-17
138	0xf6	-10
139	0x0f	15
140	0x06	6
141	0x09	9
142	0x0a	10
143	0xf1	-15
144	0x08	8
145	0x0a	10
146	0xf9	-7
147	0xf3	-13
148	0xfa	-6
149	0xee	-18
150	0xee	-18
151	0xec	-20
152	0x08	8
153	0x08	8
154	0x17	23
155	0xfb	-5
156	0x02	2
157	0x0d	13
158	0xfa	-6
159	0xfe	-2
160	0x04	4
161	0x01	1
162	0xf1	-15
163	0xf7	-9
164	0x03	3
165	0xf3	-13
166	0x01	1
167	0x0f	15
168	0xf4	-12
169	0xe2	-30
170	0xf6	-10
171	0xe2	-30
172	0xdc	-36
173	0xdf	-33
174	0x2c	44
175	0xe8	-24
176	0x02	2
177	0x0e	14
178	0x14	20
179	0x02	2
180	0xf4	-12
181	0x15	21
182	0xe2	-30
183	0xe9	-23
184	0xf4	-12
185	0xcd	-51
186	0x02	2
187	0x02	2
188	0x0e	14
189	0x00	0
190	0x01	1
191	0xf7	-9
192	0x12	18
193	0x08	8
194	0xe4	-28
195	0xcf	-49
196	0xd3	-45
197	0xf6	-10
198	0x09	9
199	0xcb	-53
200	0x05	5
201	0xf0	-16
202	0xdb	-37
203	0x05	5
204	0xfa	-6
205	0x23	35
206	0xe8	-24
207	0x20	32
208	0x38	56
209	0x0b	11
210	0x29	41
211	0x25	37
212	0x11	17
213	0x33	51
214	0xe3	-29
215	0x81	-127
216	0xed	-19
217	0xf2	-14
218	0x04	4
219	0x00	0
220	0xf9	-7
221	0xfc	-4
222	0xe5	-27
223	0xfa	-6
224	0x04	4
225	0x08	8
226	0x02	2
227	0x02	2
228	0x04	4
229	0x0b	11
230	0xfb	-5
231	0xf5	-11
232	0xfb	-5
233	0x01	1
234	0xf9	-7
235	0xfd	-3
236	0xf5	-11
237	0xe2	-30
238	0xf8	-8
239	0xfb	-5
240	0xe1	-31
241	0xde	-34
242	0x0d	13
243	0x1e	30
244	0x02	2
245	0x0f	15
246	0x03	3
247	0x1f	31
248	0xf9	-7
249	0xfd	-3
250	0x1c	28
251	0x09	9
252	0x06	6
253	0xff	-1
254	0x07	7
255	0x09	9

model/conv2d_2/Conv2D i1 [24, 3, 3, 16]
0	0xf6	-10
1	0x00	0
2	0x04	4
3	0x01	1
4	0xf0	-16
5	0x0d	13
6	0xf2	-14
7	0xf9	-7
8	0xfc	-4
9	0x00	0
10	0x07	7
11	0xfd	-3
12	0xfc	-4
13	0x09	9
14	0x05	5
15	0x0c	12
16	0xf0	-16
17	0xfa	-6
18	0x05	5
19	0x07	7
20	0xf0	-16
21	0x14	20
22	0x16	22
23	0x02	2
24	0x08	8
25	0xec	-20
26	0xe3	-29
27	0xf9	-7
28	0xfd	-3
29	0x05	5
30	0x1c	28
31	0x0e	14
32	0xf7	-9
33	0xf6	-10
34	0x12	18
35	0x0b	11
36	0xec	-20
37	0xff	-1
38	0xf0	-16
39	0xf9	-7
40	0x0a	10
41	0xe4	-28
42	0x04	4
43	0xfb	-5
44	0x06	6
45	0x08	8
46	0x0d	13
47	0x0c	12
48	0x08	8
49	0x01	1
50	0x0e	14
51	0x11	17
52	0xf4	-12
53	0x10	16
54	0xc0	-64
55	0xfb	-5
56	0xe9	-23
57	0xf1	-15
58	0x21	33
59	0xfc	-4
60	0x06	6
61	0xff	-1
62	0x14	20
63	0xfe	-2
64	0xfc	-4
65	0x1c	28
66	0xf2	-14
67	0xf6	-10
68	0xfe	-2
69	0x13	19
70	0x8f	-113
71	0xfd	-3
72	0xf1	-15
73	0x2e	46
74	0x38	56
75	0x00	0
76	0xf8	-8
77	0xfb	-5
78	0x1c	28
79	0x07	7
80	0xec	-20
81	0xf6	-10
82	0x07	7
83	0x10	16
84	0xeb	-21
85	0x0f	15
86	0x20	32
87	0xfe	-2
88	0x15	21
89	0xde	-34
90	0xd5	-43
91	0xf7	-9
92	0xfd	-3
93	0x01	1
94	0xfb	-5
95	0x0c	12
96	0xfe	-2
97	0x04	4
98	0xf5	-11
99	0x0c	12
100	0xf2	-14
101	0x09	9
102	0xe6	-26
103	0xf4	-12
104	0xe3	-29
105	0x1e	30
106	0x03	3
107	0xf4	-12
108	0x02	2
109	0x02	2
110	0x14	20
111	0x10	16
112	0x03	3
113	0x1a	26
114	0x19	25
115	0x07	7
116	0xf6	-10
117	0x0d	13
118	0x81	-127
119	0x03	3
120	0xe1	-31
121	0xec	-20
122	0x3c	60
123	0xfb	-5
124	0x05	5
125	0x0d	13
126	0x28	40
127	0x00	0
128	0xef	-17
129	0x00	0
130	0x07	7
131	0x0c	12
132	0x08	8
133	0xfe	-2
134	0x01	1
135	0x04	4
136	0x03	3
137	0xed	-19
138	0x04	4
139	0x0e	14
140	0xf6	-10
141	0xfc	-4
142	0xf2	-14
143	0xfc	-4
144	0xfb	-5
145	0x04	4
146	0x04	4
147	0x0a	10
148	0xfe	-2
149	0x09	9
150	0xf7	-9
151	0xff	-1
152	0x0c	12
153	0x0a	10
154	0x03	3
155	0x00	0
156	0x00	0
157	0x02	2
158	0x08	8
159	0x05	5
160	0xeb	-21
161	0xf9	-7
162	0x00	0
163	0x01	1
164	0xf9	-7
165	0x07	7
166	0x0e	14
167	0x00	0
168	0x0c	12
169	0xfc	-4
170	0xf7	-9
171	0xe6	-26
172	0x04	4
173	0x01	1
174	0x01	1
175	0x06	6
176	0xf9	-7
177	0xe4	-28
178	0x05	5
179	0x10	16
180	0x17	23
181	0xfd	-3
182	0x15	21
183	0x05	5
184	0x02	2
185	0xf7	-9
186	0xed	-19
187	0xe7	-25
188	0x0e	14
189	0x05	5
190	0x0e	14
191	0xf6	-10
192	0xec	-20
193	0x09	9
194	0xfd	-3
195	0x11	17
196	0xee	-18
197	0x08	8
198	0x09	9
199	0x0e	14
200	0x0d	13
201	0x01	1
202	0xf9	-7
203	0x05	5
204	0x04	4
205	0x05	5
206	0xf6	-10
207	0x02	2
208	0x07	7
209	0x1c	28
210	0xf2	-14
211	0xff	-1
212	0xea	-22
213	0x3b	59
214	0x1b	27
215	0xf1	-15
216	0xe8	-24
217	0xf0	-16
218	0xe8	-24
219	0xf5	-11
220	0xf4	-12
221	0xe7	-25
222	0xf5	-11
223	0x1b	27
224	0x2b	43
225	0xf8	-8
226	0x03	3
227	0xf0	-16
228	0x30	48
229	0x0e	14
230	0xfd	-3
231	0xe9	-23
232	0xff	-1
233	0x11	17
234	0xe9	-23
235	0xf9	-7
236	0xce	-50
237	0x0a	10
238	0x0c	12
239	0xf2	-14
240	0xdc	-36
241	0x00	0
242	0x04	4
243	0x07	7
244	0xf5	-11
245	0xed	-19
246	0x0b	11
247	0xfd	-3
248	0x00	0
249	0x00	0
250	0xf9	-7
251	0x0f	15
252	0x0a	10
253	0xf4	-12
254	0x0a	10
255	0xef	-17

model/conv2d_1/Conv2D i1 [16, 3, 3, 8]
0	0x07	7
1	0x01	1
2	0xff	-1
3	0x06	6
4	0x15	21
5	0x0a	10
6	0xff	-1
7	0xfb	-5
8	0x12	18
9	0xfb	-5
10	0x0c	12
11	0xf7	-9
12	0x07	7
13	0x08	8
14	0xf1	-15
15	0x00	0
16	0xfb	-5
17	0x03	3
18	0x0d	13
19	0x05	5
20	0x09	9
21	0xfd	-3
22	0xff	-1
23	0x01	1
24	0x03	3
25	0x00	0
26	0x06	6
27	0xf9	-7
28	0xed	-19
29	0x07	7
30	0xf9	-7
31	0x01	1
32	0xe3	-29
33	0x04	4
34	0x0d	13
35	0x81	-127
36	0xfe	-2
37	0x4a	74
38	0xd6	-42
39	0xa2	-94
40	0xf2	-14
41	0xfc	-4
42	0x0f	15
43	0xcc	-52
44	0x0c	12
45	0x16	22
46	0xf5	-11
47	0xfa	-6
48	0x03	3
49	0x00	0
50	0x0a	10
51	0x01	1
52	0xf8	-8
53	0xfe	-2
54	0x08	8
55	0x06	6
56	0xfa	-6
57	0xfb	-5
58	0x09	9
59	0xaa	-86
60	0xfe	-2
61	0x26	38
62	0x02	2
63	0xfb	-5
64	0x01	1
65	0x02	2
66	0x0b	11
67	0xef	-17
68	0x0d	13
69	0x09	9
70	0x02	2
71	0x05	5
72	0x1f	31
73	0x02	2
74	0x0d	13
75	0xf5	-11
76	0xe0	-32
77	0x12	18
78	0xf7	-9
79	0xe6	-26
80	0xd5	-43
81	0xfe	-2
82	0xee	-18
83	0xe6	-26
84	0x04	4
85	0x01	1
86	0x21	33
87	0xfc	-4
88	0x0f	15
89	0xfb	-5
90	0xff	-1
91	0x0c	12
92	0xf5	-11
93	0xfc	-4
94	0xe7	-25
95	0x25	37
96	0x16	22
97	0x04	4
98	0xf5	-11
99	0xe0	-32
100	0xe6	-26
101	0x27	39
102	0x1e	30
103	0x81	-127
104	0x88	-120
105	0xfc	-4
106	0xe5	-27
107	0xb6	-74
108	0x10	16
109	0x17	23
110	0x55	85
111	0x14	20
112	0x5a	90
113	0xee	-18
114	0xf7	-9
115	0x3f	63
116	0x07	7
117	0xd7	-41
118	0xb2	-78
119	0x4f	79
120	0xe5	-27
121	0x10	16
122	0xc8	-56
123	0xb8	-72
124	0xfb	-5
125	0x3c	60
126	0x0a	10
127	0x81	-127
128	0xdf	-33
129	0xf5	-11
130	0x0b	11
131	0xea	-22
132	0x1d	29
133	0xdd	-35
134	0x2e	46
135	0x4e	78
136	0x3f	63
137	0xf7	-9
138	0xf4	-12
139	0x39	57
140	0x22	34
141	0xff	-1
142	0xed	-19
143	0x26	38
144	0x06	6
145	0x06	6
146	0x00	0
147	0x05	5
148	0x03	3
149	0x0c	12
150	0xeb	-21
151	0xc6	-58
152	0xfb	-5
153	0x04	4
154	0x02	2
155	0x14	20
156	0x09	9
157	0x0e	14
158	0x1f	31
159	0x9c	-100
160	0xfb	-5
161	0xfd	-3
162	0xfe	-2
163	0xe6	-26
164	0xfc	-4
165	0x10	16
166	0x3d	61
167	0xe3	-29
168	0xfd	-3
169	0x01	1
170	0xff	-1
171	0xdc	-36
172	0xfb	-5
173	0xe2	-30
174	0xf8	-8
175	0x7f	127
176	0xff	-1
177	0x09	9
178	0x07	7
179	0x27	39
180	0x06	6
181	0xdf	-33
182	0x05	5
183	0x15	21
184	0xf3	-13
185	0x05	5
186	0xf8	-8
187	0x14	20
188	0x06	6
189	0x09	9
190	0x34	52
191	0xc2	-62
192	0x02	2
193	0xf7	-9
194	0x04	4
195	0x01	1
196	0x05	5
197	0x04	4
198	0x06	6
199	0xf2	-14
200	0x09	9
201	0xf5	-11
202	0x01	1
203	0xd6	-42
204	0xf7	-9
205	0xe3	-29
206	0x84	-124
207	0x7d	125
208	0x04	4
209	0xfb	-5
210	0x05	5
211	0x10	16
212	0x00	0
213	0xfa	-6
214	0xfa	-6
215	0xfb	-5
216	0x26	38
217	0x07	7
218	0xf3	-13
219	0x24	36
220	0xa7	-89
221	0xff	-1
222	0x04	4
223	0xec	-20
224	0xb3	-77
225	0xcd	-51
226	0xc8	-56
227	0x39	57
228	0xc2	-62
229	0xdb	-37
230	0x12	18
231	0xdc	-36
232	0x26	38
233	0x05	5
234	0xfc	-4
235	0xfa	-6
236	0xa2	-94
237	0x0d	13
238	0xd6	-42
239	0xe5	-27
240	0xe7	-25
241	0xbf	-65
242	0xb1	-79
243	0xfa	-6
244	0xcd	-51
245	0xfa	-6
246	0x1d	29
247	0xcf	-49
248	0x81	-127
249	0x9c	-100
250	0xbb	-69
251	0x11	17
252	0xe8	-24
253	0xf5	-11
254	0x34	52
255	0xc2	-62

model/conv2d/Conv2D i1 [8, 3, 3, 3]
0	0x4a	74
1	0xec	-20
2	0xe4	-28
3	0xea	-22
4	0xec	-20
5	0x15	21
6	0x0e	14
7	0x13	19
8	0xed	-19
9	0xb6	-74
10	0xee	-18
11	0x1f	31
12	0x81	-127
13	0xd3	-45
14	0x32	50
15	0x0f	15
16	0xfe	-2
17	0xf3	-13
18	0xb7	-73
19	0xd9	-39
20	0x07	7
21	0xff	-1
22	0xcf	-49
23	0xf4	-12
24	0x57	87
25	0x01	1
26	0xcc	-52
27	0xfb	-5
28	0x07	7
29	0xfc	-4
30	0xec	-20
31	0x15	21
32	0xfc	-4
33	0xf9	-7
34	0x0b	11
35	0xfc	-4
36	0x00	0
37	0xff	-1
38	0x02	2
39	0x5b	91
40	0x81	-127
41	0x25	37
42	0x04	4
43	0xf8	-8
44	0x06	6
45	0xf8	-8
46	0x09	9
47	0x00	0
48	0x46	70
49	0x98	-104
50	0x1f	31
51	0xf5	-11
52	0x0e	14
53	0xfd	-3
54	0xef	-17
55	0x10	16
56	0xfe	-2
57	0xa1	-95
58	0xc6	-58
59	0xed	-19
60	0x1e	30
61	0x1c	28
62	0x20	32
63	0x54	84
64	0x16	22
65	0x05	5
66	0xda	-38
67	0xfd	-3
68	0xd9	-39
69	0x97	-105
70	0xe0	-32
71	0xd3	-45
72	0x25	37
73	0xf2	-14
74	0x17	23
75	0x7f	127
76	0xf7	-9
77	0x16	22
78	0x09	9
79	0x0b	11
80	0xe6	-26
81	0x18	24
82	0xcf	-49
83	0x0e	14
84	0xf5	-11
85	0x04	4
86	0x08	8
87	0x06	6
88	0xeb	-21
89	0x0e	14
90	0xe3	-29
91	0x22	34
92	0x01	1
93	0xcc	-52
94	0x7f	127
95	0xcc	-52
96	0x0a	10
97	0xf6	-10
98	0xf9	-7
99	0x04	4
100	0xf5	-11
101	0x08	8
102	0x06	6
103	0x08	8
104	0xec	-20
105	0xf9	-7
106	0x05	5
107	0x03	3
108	0xe7	-25
109	0xba	-70
110	0xe1	-31
111	0xb9	-71
112	0x02	2
113	0xfa	-6
114	0xc8	-56
115	0x32	50
116	0x2b	43
117	0x0f	15
118	0xe3	-29
119	0xda	-38
120	0x20	32
121	0x64	100
122	0xdb	-37
123	0x24	36
124	0x73	115
125	0xe5	-27
126	0x21	33
127	0xdf	-33
128	0x0b	11
129	0x5f	95
130	0x64	100
131	0xfc	-4
132	0x21	33
133	0x7f	127
134	0xf2	-14
135	0xa4	-92
136	0xe4	-28
137	0xd2	-46
138	0x0f	15
139	0x07	7
140	0x05	5
141	0x02	2
142	0xfd	-3
143	0x0f	15
144	0x0d	13
145	0x0c	12
146	0x1a	26
147	0x7f	127
148	0x36	54
149	0x3d	61
150	0xea	-22
151	0xf0	-16
152	0xeb	-21
153	0x08	8
154	0x0a	10
155	0xfb	-5
156	0xf9	-7
157	0xe6	-26
158	0xe4	-28
159	0xe3	-29
160	0xf8	-8
161	0xf5	-11
162	0x12	18
163	0xeb	-21
164	0x05	5
165	0xf7	-9
166	0x00	0
167	0x10	16
168	0x0b	11
169	0xf1	-15
170	0x06	6
171	0xf6	-10
172	0x0e	14
173	0xfe	-2
174	0xf7	-9
175	0x19	25
176	0xe3	-29
177	0xf5	-11
178	0x0b	11
179	0x01	1
180	0x00	0
181	0x10	16
182	0xf4	-12
183	0x4a	74
184	0xf8	-8
185	0x81	-127
186	0xf1	-15
187	0x17	23
188	0x01	1
189	0x11	17
190	0x0f	15
191	0xcf	-49
192	0x00	0
193	0x08	8
194	0xfa	-6
195	0x0f	15
196	0x18	24
197	0xd3	-45
198	0xf6	-10
199	0x0e	14
200	0x00	0
201	0xc0	-64
202	0xdf	-33
203	0x7f	127
204	0x0b	11
205	0xe2	-30
206	0x11	17
207	0x17	23
208	0xf0	-16
209	0xf7	-9
210	0xf2	-14
211	0xbf	-65
212	0x4c	76
213	0xf8	-8
214	0xe1	-31
215	0x22	34
